test_onnxruntime_flutter/assets/models/best_model.onnx (onnx, 75597 bytes, 11 tensors)

policy.mlp_extractor.policy_net.0.weight f4 [64, 51]
0	0xbeaf1051	-0.34192136
1	0xbfba7816	-1.4567897
2	0xbe12a9d1	-0.14322592
3	0xbdcab119	-0.0989706
4	0xbd2cc0cc	-0.042176053
5	0xbe1fa7d0	-0.15591359
6	0x3dc62f0f	0.096769445
7	0x410169f6	8.088369
8	0xbf3b301e	-0.73120296
9	0xbdb84cd7	-0.08999031
10	0xbcdb2df8	-0.026755318
11	0x3dd26147	0.102724604
12	0x3e41f8df	0.18942593
13	0x3f7ed5b2	0.99544823
14	0xbe7ee05a	-0.24890271
15	0xbea6ab44	-0.3255254
16	0x3ce3bb8b	0.027799388
17	0xbe8ec449	-0.2788413
18	0x3d9277c4	0.0715175
19	0x3dd0de1c	0.10198614
20	0x3e06f458	0.13179147
21	0xbca4d588	-0.02012135
22	0xbf0b31eb	-0.54373044
23	0xbe14babe	-0.14524361
24	0xbd8f304f	-0.06991636
25	0x3ccaf281	0.024773838
26	0x3de0b442	0.109718814
27	0xbf3c4bdf	-0.7355327
28	0x3e120608	0.14260113
29	0xbd8f1fca	-0.06988485
30	0x3dbed202	0.093173996
31	0xbeb111dc	-0.34583938
32	0x3de7c8eb	0.11317619
33	0xbda33fd5	-0.07971159
34	0x3d0d1c30	0.03445071
35	0x3de4c554	0.1117045
36	0x3ebe80bf	0.372076
37	0xbe3a914b	-0.18219487
38	0xbe5de656	-0.21669897
39	0x3ed0dbdd	0.40792742
40	0x3f1d57b0	0.61461926
41	0x3daef3c0	0.085425854
42	0xbdf4b614	-0.11948791
43	0xbf14bb69	-0.58098465
44	0x3e6187ae	0.22024414
45	0x3f89bbaf	1.0760401
46	0x3de1612c	0.11004862
47	0x3e8c36a0	0.27385426
48	0x3b048dda	0.0020226152
49	0x3f2e1ac3	0.68009585
50	0x3e01be3c	0.12670225
51	0x3dd79212	0.105259076
52	0xbe4867c3	-0.19570832
53	0xbd9a6491	-0.07538713
54	0x3d17c63a	0.037054278
55	0x3e8d2690	0.27568483
56	0x3d93530e	0.07193576
57	0x3d30b533	0.043141555
58	0x3e39f0aa	0.18158212
59	0xbe446e65	-0.19182737
60	0xbf70504c	-0.93872523
61	0x3e4cc799	0.19998015
62	0xbe8e7a9d	-0.27827922
63	0x3d551489	0.052021537
64	0xbe5e9546	-0.21736631
65	0x3de22581	0.110423096
66	0xbe54f006	-0.20794687
67	0x3dcf9d1f	0.1013739
68	0x3ef63874	0.48089945
69	0x3da2470b	0.079237066
70	0x3d763c80	0.06011629
71	0xbdf1be0a	-0.11803825
72	0xbe0366bc	-0.12832159
73	0xbe2a5657	-0.16634499
74	0xbf86936b	-1.0513738
75	0x3de0b4f3	0.10972013
76	0x3eb30fa3	0.34972867
77	0x3e3108a2	0.1728845
78	0xbe18dd83	-0.1492825
79	0xbc91a980	-0.01778102
80	0x3e3d03f7	0.18458544
81	0xbe62079b	-0.22073214
82	0x40c00b10	6.0013504
83	0xbdca3d52	-0.09874977
84	0x3e62f1e7	0.22162591
85	0xbc3ab657	-0.011396012
86	0x3e27acee	0.16374561
87	0xbd1fb36f	-0.03898948
88	0xbc11ac32	-0.008891152
89	0x3eb04190	0.3442502
90	0xbd36320e	-0.04448133
91	0xbc8d48ca	-0.017246623
92	0xbe4f1eb7	-0.2022656
93	0x3e63243d	0.22181793
94	0xbe9190c7	-0.2843077
95	0xbdf4a442	-0.11945392
96	0x3e0d922b	0.1382529
97	0x3c4379db	0.011930908
98	0x3b587658	0.0033029523
99	0x3e4a7207	0.1977006
100	0x3e726dba	0.2367467
101	0xbf93be8a	-1.1542523
102	0x3d0f52b3	0.034990977
103	0x3c85b86f	0.016323296
104	0xbd537b62	-0.05163134
105	0x3d951d4a	0.07280977
106	0xbd77fa8e	-0.060541682
107	0xbdd51a58	-0.10405415
108	0xbdeac326	-0.11463003
109	0xbe73503a	-0.23761073
110	0x3f8f3f3f	1.1191176
111	0xbf2a8a94	-0.66617703
112	0x406dbf5a	3.7148042
113	0xbe02e84c	-0.12783927
114	0x3de271c8	0.11056858
115	0x3adfb0d3	0.0017066248
116	0xbdd284e3	-0.102792524
117	0x3c2af21b	0.010433699
118	0xbe3268ba	-0.17422763
119	0x3d157cc2	0.03649593
120	0x3da4c258	0.08044881
121	0x3d93dcdd	0.07219861
122	0x3d833a2b	0.06407579
123	0xbe5570ff	-0.20843886
124	0xbe954af2	-0.2915874
125	0x3d18e312	0.037325926
126	0xbb3d2b3b	-0.0028864879
127	0x3d8004fb	0.0625095
128	0xbe06490a	-0.131138
129	0xbe44b9a6	-0.19211444
130	0xbe6d00b7	-0.23144804
131	0xbf216e87	-0.63059276
132	0xbd5eafc0	-0.054366827
133	0xbd477266	-0.048693083
134	0x3dae94fa	0.08524509
135	0x3e87be2d	0.2651228
136	0xbc825d88	-0.01591374
137	0xbdaeceeb	-0.0853556
138	0xbe81e86c	-0.25372636
139	0xbe146eaa	-0.1449534
140	0xbe2de119	-0.16980399
141	0xbb5785bb	-0.0032886106
142	0x3e20b1dd	0.1569285
143	0xbec4c345	-0.3843023
144	0xbe491a28	-0.19638884
145	0xbe8c4321	-0.27394965
146	0xbe1c49b7	-0.15262495
147	0xbdd069ea	-0.101764515
148	0xbe8c7f7b	-0.2744101
149	0xbe4a7481	-0.19771005
150	0xbdf8bc94	-0.121453434
151	0xbfe02425	-1.751103
152	0xbfcde14f	-1.6084384
153	0xbe61cc6e	-0.2205064
154	0xbdb10c59	-0.08644933
155	0xbe7cca1e	-0.24686477
156	0x3cf55d4b	0.029951712
157	0xbe5e6236	-0.21717152
158	0xbef7ea36	-0.48420876
159	0xbef56b65	-0.47933498
160	0xbca32cf6	-0.0199189
161	0xbf1d6e2c	-0.61496234
162	0xbf649b96	-0.89299905
163	0xbe7e8555	-0.2485555
164	0xbdab43e1	-0.08362556
165	0xbfaedb48	-1.3660669
166	0xbe55f384	-0.20893675
167	0x3cb6e85a	0.02232759
168	0xbda51592	-0.08060755
169	0xbf04b1c9	-0.5183378
170	0xbdd5d5e9	-0.10441191
171	0x3bcc7ed2	0.006240704
172	0xbf88866b	-1.0666021
173	0xbe3a9a8a	-0.18223014
174	0xbe95beaa	-0.29247028
175	0x3e5342f2	0.20631006
176	0xbde8ac72	-0.11361016
177	0xbe371001	-0.17877199
178	0xbe8008f4	-0.2500683
179	0x3d635d8e	0.055509143
180	0x3eef9061	0.4678984
181	0xbddcb8ee	-0.1077746
182	0x3e26bd46	0.1628314
183	0xbea196cd	-0.31560364
184	0xbd2846d3	-0.04108317
185	0xbe471495	-0.19441445
186	0xbfa5d168	-1.2954531
187	0xbe99eda1	-0.3006411
188	0xbe281386	-0.16413698
189	0xbd29b728	-0.041434437
190	0x3ea87c65	0.32907405
191	0x3eb3c9dd	0.35114947
192	0xbddcc79a	-0.107802585
193	0x3e4d9414	0.20076019
194	0xbdaa4b00	-0.08315086
195	0xbdc79e7e	-0.09747027
196	0xbd8d1d84	-0.06890395
197	0xbe60da41	-0.21958257
198	0xbe84f522	-0.25968271
199	0xbed0ed5b	-0.40806088
200	0xbea460f9	-0.32105234
201	0xbe2372bb	-0.15961735
202	0x3fd6217e	1.6728971
203	0x3ea58019	0.32324293
204	0xc08a6bd6	-4.3256636
205	0xbe2db3d7	-0.16963135
206	0xbe8ffcf5	-0.28122678
207	0x3e039356	0.12849173
208	0x3e79dade	0.24399897
209	0xbe3d163b	-0.18465512
210	0xbe69be8c	-0.22826594
211	0xbd709619	-0.058736894
212	0xbff3f12b	-1.9057974
213	0xbdd94665	-0.1060913
214	0xbc62168f	-0.013799324
215	0x3f2edd79	0.6830669
216	0xbdcd9427	-0.100380234
217	0xbf009f9c	-0.50243545
218	0xbea7e11e	-0.32788938
219	0xbd86b987	-0.06578355
220	0xbf6e5310	-0.93095493
221	0xbe177f09	-0.14794554
222	0x3f4b2f41	0.7936898
223	0x3f03b1f2	0.514434
224	0xbdd34d9a	-0.10317536
225	0xbd72a522	-0.059239514
226	0xbe910501	-0.2832413
227	0xbe38a02c	-0.1802985
228	0xc0865263	-4.197557
229	0x3f02707a	0.50952876
230	0xbe8be4eb	-0.27323088
231	0xbe34af4f	-0.17645
232	0x3ef45fa7	0.47729227
233	0x3fa4983c	1.2858958
234	0x3eed3f9e	0.463376
235	0x3f3e3037	0.7429232
236	0x3f1280ce	0.5722779
237	0xbdeb0285	-0.1147509
238	0xbcc9b285	-0.024621258
239	0x3e2cdf48	0.1688205
240	0x3e8b830a	0.27248412
241	0x3e90ca9a	0.28279573
242	0xbe0185fc	-0.12648767
243	0xbd9e75a4	-0.07737282
244	0x3d379616	0.044820867
245	0xbea56830	-0.3230605
246	0xbede7ed5	-0.4345614
247	0x3eb5bfda	0.35497934
248	0xbf3126c6	-0.6919979
249	0xbc11cfc3	-0.008899632
250	0x3e46aa68	0.19400942
251	0x3e2aa980	0.16666222
252	0x3e33707d	0.1752338
253	0xbf690cd7	-0.9103522
254	0xbf9709eb	-1.1799902
255	0xbe02be67	-0.12767945

policy.mlp_extractor.policy_net.0.bias f4 [64]
0	0x3e368d02	0.17827228
1	0xbf3602af	-0.71097845
2	0xc030d305	-2.7628796
3	0x40148469	2.3205817
4	0xc004dd63	-2.0760124
5	0x3f498ac3	0.7872736
6	0xbf9161cd	-1.1357971
7	0xbe950fc1	-0.29113582
8	0x3eb87751	0.3602853
9	0xbe1b5372	-0.1516855
10	0x3f07c48d	0.5303429
11	0x3fa4bd68	1.2870302
12	0x3d797ae7	0.060908224
13	0x3fbbe8af	1.4680384
14	0x3ea11c69	0.31466988
15	0xbfac3a62	-1.3455317
16	0xbf24ba65	-0.64346915
17	0xbbc2b1b4	-0.005941594
18	0xbe3cd261	-0.18439628
19	0x3ec0859b	0.37601933
20	0x3e7b422a	0.24536958
21	0x403a7e2b	2.9139507
22	0x3fd09716	1.6296108
23	0xbfad4ffc	-1.3540034
24	0xbf9db406	-1.2320564
25	0x3ef2924f	0.4737725
26	0xbddb3407	-0.10703283
27	0xbfd7388d	-1.6814133
28	0x3e821e85	0.2541391
29	0x3fcc1956	1.5945232
30	0x3fcb24e4	1.5870633
31	0xbf9fa3ac	-1.2471824
32	0x40191d9a	2.3924317
33	0x3e1bfca5	0.15233095
34	0x3f5880ea	0.8457171
35	0x3ed76db0	0.42075872
36	0x3ea61dce	0.32444614
37	0xbfa18670	-1.2619152
38	0xbf3e05e5	-0.74227744
39	0x3ea480f9	0.32129648
40	0xbfbde36c	-1.4835029
41	0xbc12a2b6	-0.008949926
42	0xbeef7d9a	-0.46775514
43	0x3f159ad3	0.5843937
44	0x3f21692d	0.6305111
45	0xbffc2472	-1.9698622
46	0xc0383dc3	-2.8787696
47	0x3f20f192	0.6286861
48	0xbf7444ef	-0.95417684
49	0x3f1f047c	0.6211622
50	0x3f9d79c3	1.2302784
51	0x3fb4e7c6	1.4133232
52	0xbd951412	-0.07279219
53	0x3bf14229	0.0073626232
54	0xbf23dd3c	-0.6400945
55	0xbf8ebb9a	-1.1151001
56	0xc028d27d	-2.6378472
57	0x3e682baa	0.22672907
58	0x3e04491d	0.12918516
59	0x3f1e20c6	0.6176876
60	0x402921f9	2.6426985
61	0xbf8c92bb	-1.0982279
62	0xbfbeaed8	-1.4897108
63	0x3ef1b378	0.47207236

policy.mlp_extractor.policy_net.2.weight f4 [64, 64]
0	0xbd419350	-0.04725963
1	0xbed64039	-0.41845873
2	0x3ec870c0	0.3914852
3	0xbf1f2711	-0.62168986
4	0x3e754a17	0.23954044
5	0x3eea865a	0.45805627
6	0x3e89cb73	0.26913032
7	0x3b268f54	0.002541502
8	0xbf2dde0d	-0.6791695
9	0xbd8016f4	-0.06254378
10	0x3d5a2e03	0.053266536
11	0xbf860242	-1.0469439
12	0x3e5caf6f	0.21551298
13	0xbf4427c7	-0.76623195
14	0x3d38bf11	0.04510409
15	0x3e9548cd	0.29157105
16	0x3f258c9b	0.6466767
17	0x3f4fbd71	0.8114844
18	0x3eddbff6	0.43310517
19	0x3f8e17a4	1.1100965
20	0xbf4392fb	-0.7639615
21	0x3e995b44	0.29952443
22	0x3db803c4	0.08985093
23	0x3de71ae9	0.112844296
24	0xbfa37f62	-1.2773249
25	0x3f00872c	0.50206256
26	0x3deda198	0.11603087
27	0xbdce9815	-0.10087601
28	0x3e95535d	0.29165164
29	0xbed60d68	-0.41807103
30	0x3e9d7d0a	0.3075946
31	0xbdb72719	-0.08943004
32	0x3ef41dc2	0.47678953
33	0x3df0eb3e	0.11763619
34	0xbf563aef	-0.83683676
35	0x3edf0385	0.43557373
36	0xbe3876d4	-0.1801408
37	0xbf181984	-0.59413934
38	0xbe79e93a	-0.24405375
39	0xbdbd1e32	-0.09234275
40	0x3f164a8d	0.58707505
41	0xbe9bd35b	-0.3043469
42	0xbf8b55bb	-1.0885538
43	0xbe43efdc	-0.19134468
44	0xbeebde69	-0.46068123
45	0xbd2cd105	-0.042191524
46	0x3f871d6e	1.0555856
47	0xbf6f8c72	-0.9357368
48	0xbe47991b	-0.19491999
49	0x3efb714f	0.49109885
50	0xbddef7c5	-0.10887102
51	0x3ed6fcf9	0.41989878
52	0xbed5c31c	-0.4175042
53	0xbe4b767e	-0.1986942
54	0xbe22ded2	-0.15905312
55	0xbdfa0e77	-0.1220979
56	0x3e81f00d	0.25378457
57	0xbdcd65a3	-0.10029151
58	0x3e8e93be	0.27847093
59	0xb9db6968	-0.0004184947
60	0xbe5ff7e9	-0.21871914
61	0x3e7dc45e	0.2478194
62	0x3ea5d77e	0.3239097
63	0xbf094899	-0.536264
64	0x3f1997ed	0.59997445
65	0xbec9aaf6	-0.39388245
66	0x3eed241e	0.46316618
67	0x3f1e413c	0.6181829
68	0x3f89b75c	1.0759082
69	0xbe8460c0	-0.25855064
70	0xbee5bb68	-0.44869542
71	0x3ddebdd3	0.1087605
72	0x3ed213d2	0.41030747
73	0x3eb733bb	0.35781655
74	0x3e0bb947	0.13644896
75	0x3eaa108e	0.33215755
76	0xbea4b3e4	-0.32168496
77	0x3c5665ca	0.013085792
78	0xbd2c3343	-0.042041074
79	0xbec8a3dc	-0.39187515
80	0xbe82d875	-0.2555577
81	0x3f04ae6c	0.51828647
82	0x3eb5ca12	0.3550573
83	0x3ea661de	0.32496542
84	0xbf148b69	-0.58025223
85	0x3eba4cb8	0.36386657
86	0x3f1941eb	0.5986621
87	0xbed9df72	-0.42553288
88	0x3de57cdd	0.112054564
89	0x3f6785f8	0.90438795
90	0x3dc62d11	0.096765645
91	0xbee96deb	-0.45591673
92	0xbdeb1f0a	-0.114805296
93	0x3f78e0c7	0.97217983
94	0x3f8bb8f9	1.0915824
95	0x3f6dfca7	0.9296364
96	0x3f4ab8dd	0.7918833
97	0xbecf02a2	-0.40431696
98	0xbf5c1bd3	-0.85979956
99	0x3e79cdc0	0.24394894
100	0x3ea5c6f1	0.32378343
101	0xbfa4ab34	-1.2864747
102	0x3f21b08c	0.63160014
103	0x3dc86439	0.09784741
104	0xbfe8fa61	-1.820141
105	0x3e92f522	0.28702646
106	0xbe25d482	-0.16194347
107	0xbe2c3257	-0.16816078
108	0x3e8bf18e	0.2733273
109	0xbd505077	-0.050857987
110	0xbf8762a1	-1.0576974
111	0x3ea82b0e	0.32845348
112	0x3eba5c3a	0.36398488
113	0xbf4eb509	-0.8074499
114	0xbc96b715	-0.018397847
115	0xbee4a81d	-0.4465951
116	0xbf4d7a89	-0.802651
117	0xbe52df9e	-0.20593116
118	0xbf137760	-0.57604027
119	0x3da092b6	0.07840483
120	0x3f2f02d7	0.6836371
121	0xbe8ece09	-0.27891567
122	0x3f2d5f69	0.6772371
123	0x3df2aec7	0.118497424
124	0xbe916d37	-0.28403637
125	0xbdfe8426	-0.12427549
126	0xbe9b8706	-0.30376452
127	0xbf025ce5	-0.50922996
128	0xbfddc3c4	-1.7325368
129	0x3d9c8da5	0.07644204
130	0xbe84e644	-0.2595693
131	0xbeb054d2	-0.34439713
132	0x3f11a92c	0.5689876
133	0xbc0023af	-0.007821008
134	0x3ee4700c	0.44616735
135	0xbe808240	-0.25099373
136	0xbe2763f7	-0.16346727
137	0xbec64774	-0.3872639
138	0xbc3ef261	-0.011654467
139	0x3f272dc6	0.6530422
140	0x3da54092	0.080689564
141	0x403623f0	2.8459435
142	0xbdfc0cea	-0.12307151
143	0xbc83087d	-0.015995258
144	0xbe14f3a1	-0.14546062
145	0x3ee19421	0.44058326
146	0x3edb106b	0.42785963
147	0x3ec83c6a	0.39108592
148	0x3fd26ee9	1.6440097
149	0xbe4766a5	-0.1947275
150	0x3e15fb64	0.14646679
151	0x3b9aa2ee	0.0047191298
152	0x3e886756	0.2664134
153	0x3ef270b4	0.4735161
154	0xbd7a0514	-0.06104
155	0x3dd7206b	0.1050423
156	0xbd258df5	-0.040418584
157	0xbe17dd40	-0.14830494
158	0x3deef841	0.116684444
159	0xbf4e2a80	-0.805336
160	0x4005801c	2.0859442
161	0x3c5ed5b6	0.013600757
162	0xbed908bb	-0.42389473
163	0x3ee739d9	0.45161322
164	0x3c8f2a26	0.017476153
165	0x3ec4d598	0.3844421
166	0x3e80c11f	0.2514734
167	0xbf00c2d4	-0.50297284
168	0xbfa0172c	-1.2507071
169	0x3d90d21c	0.07071325
170	0xbf38f24c	-0.72244716
171	0xbda8fc08	-0.08251196
172	0x3f40ba8e	0.7528466
173	0x3f3def7e	0.7419356
174	0x3db3189b	0.087449275
175	0xbdf44a67	-0.119282536
176	0xbeae2225	-0.34010425
177	0xbea377eb	-0.31927428
178	0xbc9de614	-0.019274749
179	0x3ccf5c87	0.025312675
180	0xbda9676d	-0.0827168
181	0xbd88ab72	-0.066733256
182	0x3f874b43	1.0569843
183	0xbe3694d9	-0.17830218
184	0xbfa4b5ff	-1.2868041
185	0x3daf051a	0.08545895
186	0x3f2d6241	0.6772805
187	0xbf2d8588	-0.6778188
188	0x3f8dbebb	1.1073831
189	0xbd08d88b	-0.033409636
190	0xbc93070b	-0.017947694
191	0x3d9fe63e	0.07807587
192	0xbeef1876	-0.4669835
193	0x3ead1cc6	0.33811015
194	0xbd9e3220	-0.07724404
195	0xbf116e78	-0.56809187
196	0x3f5d9b98	0.8656554
197	0xbdb3f0cc	-0.08786163
198	0x3dc44fe5	0.09585551
199	0xbe5f9ad3	-0.21836405
200	0xbfacb32f	-1.3492182
201	0xbe60af4e	-0.21941873
202	0x3ec5f862	0.38666064
203	0xbea50402	-0.3222962
204	0x3e8311e7	0.25599596
205	0x401068f4	2.2564058
206	0xbe0c39b6	-0.1369389
207	0xbec996e1	-0.39372924
208	0xbebd94cf	-0.37027594
209	0x3ed469ab	0.41486868
210	0xbefc5b30	-0.4928832
211	0x3e783604	0.24239355
212	0x3e12c014	0.14331084
213	0x3ee7823e	0.45216554
214	0xbda56153	-0.08075204
215	0xbdc82419	-0.0977251
216	0x3f0d32f0	0.5515585
217	0xbedb3101	-0.42810825
218	0xbd90c40f	-0.07068645
219	0x3d4d4b46	0.050120614
220	0xbcb9c158	-0.022675201
221	0xbc634e14	-0.013873596
222	0x3e8b295d	0.27179995
223	0xbfe79a80	-1.8094025
224	0x401656a9	2.3490393
225	0x3ce444c7	0.027864827
226	0xbeb64867	-0.35602114
227	0x3ef528c2	0.47882658
228	0xbea6a761	-0.32549575
229	0x3e1a52e1	0.15070678
230	0x3eb1591f	0.34638306
231	0x3d38aaa7	0.04508462
232	0x3e1a5b94	0.15073997
233	0xbe072ca6	-0.13200626
234	0x3e9fb1fe	0.31190485
235	0x3f20a3d2	0.6274997
236	0x3f952ee4	1.1654935
237	0xbedf422e	-0.4360518
238	0xbed30f3d	-0.41222563
239	0xbe8f1f2e	-0.27953476
240	0x3caa81bb	0.020813813
241	0x3f3768aa	0.7164408
242	0x3d4b5eed	0.049651075
243	0x4004b867	2.073755
244	0x3d576b18	0.052592367
245	0xbc884b04	-0.016637333
246	0x3f53c41e	0.82721126
247	0x3da2533b	0.07926031
248	0x3d868815	0.06568924
249	0x3d0037ef	0.031303342
250	0x3e558a25	0.20853479
251	0xbea19cb2	-0.31564862
252	0x3c2596e8	0.01010678
253	0xbea53eab	-0.32274374
254	0x3f329c24	0.697695
255	0x3d9bb4af	0.07602822

policy.mlp_extractor.policy_net.2.bias f4 [64]
0	0xbd7f2629	-0.06229225
1	0xbe6232cd	-0.22089691
2	0x3f4dc97e	0.8038558
3	0x3e5249bf	0.20535944
4	0x3e5d7d05	0.21629722
5	0x3ee07574	0.4383961
6	0xbf7463ad	-0.95464593
7	0xbb7cf56b	-0.003859843
8	0x3f0f8bbb	0.56072587
9	0xbf254f5a	-0.64574206
10	0x3e29f055	0.16595586
11	0x3dda13fe	0.106483445
12	0xbf2e9c19	-0.68206936
13	0xbed9199a	-0.42402345
14	0xbd4c59da	-0.049890377
15	0xbca19be7	-0.01972766
16	0x3e13ae8e	0.14422056
17	0x3ef8762d	0.4852766
18	0x3d103e40	0.035215616
19	0xbe7234a7	-0.23652898
20	0xbf149a8e	-0.5804833
21	0x3efdd463	0.495761
22	0xbe52519b	-0.20538943
23	0xbea6e770	-0.32598448
24	0x3e87af18	0.26500773
25	0x3efb69fd	0.491043
26	0xbf92c714	-1.1467004
27	0xbf5691f1	-0.8381644
28	0xbf0bd933	-0.54628295
29	0x3fd13514	1.6344323
30	0xbecfd907	-0.40595266
31	0x3f8d0469	1.1016971
32	0x3e583b99	0.21116485
33	0xbe09d3ae	-0.13459656
34	0xbcc246e0	-0.023715436
35	0xbf09c8f1	-0.5382224
36	0xbe7d8795	-0.24758752
37	0xbf8a08c9	-1.0783931
38	0x3f8894c0	1.0670395
39	0xbfbd7172	-1.4800246
40	0x3f517442	0.8181802
41	0xbeed59b8	-0.46357512
42	0xbfa937e5	-1.3220183
43	0x3f947e1f	1.1600989
44	0x3f4f5230	0.80984783
45	0x3f08a627	0.5337853
46	0x3f606c5c	0.87665343
47	0xbe5ca666	-0.21547851
48	0xbef5706f	-0.47937343
49	0xbf243cdf	-0.6415538
50	0x3f9d045f	1.2266959
51	0x3fba2ea2	1.4545481
52	0xbf7ce10e	-0.98780906
53	0x3eb62271	0.35573152
54	0x3f38e58b	0.72225255
55	0xbfb4a80b	-1.4113783
56	0x3e575abc	0.21030706
57	0x3f1c6808	0.6109624
58	0xbe6fef8c	-0.23431224
59	0xbe2c9ad3	-0.16855936
60	0x3a156db4	0.0005700246
61	0xbe805258	-0.25062823
62	0xbeac9007	-0.33703634
63	0x3fbff2ca	1.4995968

policy.mlp_extractor.value_net.0.weight f4 [64, 51]
0	0xbd64c291	-0.055849615
1	0x3e3e0bb7	0.18559156
2	0xbe4fbc7b	-0.20286743
3	0xbdcc80be	-0.09985493
4	0xbe42d905	-0.19028099
5	0x3ea22d8a	0.3167537
6	0x3f4eb15c	0.8073938
7	0xbd79ea33	-0.061014365
8	0xbe86cd14	-0.26328337
9	0xc0d162c3	-6.543306
10	0xbe13f0a7	-0.1444727
11	0xbf00ddfb	-0.50338715
12	0xbe286c40	-0.16447544
13	0x3f719ba7	0.9437813
14	0x3d2319d2	0.039819546
15	0xc0b0f272	-5.5295954
16	0xbe432bc4	-0.19059664
17	0x3e3790a5	0.17926271
18	0xbe5762c2	-0.21033767
19	0x3f07343f	0.52814096
20	0x3f703491	0.9383021
21	0xbd7783c3	-0.060428392
22	0x3e489f78	0.19592083
23	0x3d4b4d56	0.0496343
24	0x3e5869d2	0.21134117
25	0xbe3f56a1	-0.1868539
26	0xbdf42a5c	-0.11922142
27	0x3f86d8fa	1.0534966
28	0xbe5bda33	-0.21469955
29	0x3d2641f0	0.040590227
30	0xbe0f4886	-0.13992509
31	0x3d0babeb	0.0340995
32	0xbe91e30e	-0.2849354
33	0xbe766feb	-0.24066131
34	0x3f50d9d6	0.8158239
35	0x3d2f2314	0.042758062
36	0xbe143fbe	-0.1447744
37	0x3eafb4dd	0.34317675
38	0xbe34a599	-0.17641295
39	0x3e0af3ce	0.13569567
40	0xbe125a93	-0.14292364
41	0x3f789022	0.9709493
42	0x3f81ffc6	1.0156181
43	0x3f7d2c60	0.98895836
44	0x3f8b211b	1.0869478
45	0x3f2c4f63	0.67308635
46	0x3f698358	0.9121604
47	0x3f5749d9	0.8409706
48	0x3f6aff9a	0.9179627
49	0xc0413090	-3.018589
50	0xc04905de	-3.140983
51	0x3dad9438	0.08475536
52	0x3e65050f	0.22365211
53	0x3e2c5f7f	0.16833304
54	0x3e193b53	0.14964037
55	0xbd20239e	-0.039096467
56	0xbd92d1e2	-0.07168938
57	0xbbe45f51	-0.0069693704
58	0x40cb23b9	6.3481107
59	0xbd6e9a0a	-0.05825237
60	0x3b86a433	0.0041089295
61	0xbeadc93e	-0.33942598
62	0xbe86c648	-0.26323152
63	0xbe9e6964	-0.30939782
64	0x3ded9c31	0.11602057
65	0x3ea3832a	0.31936008
66	0x3f2f2205	0.68411285
67	0xbdb486c4	-0.08814767
68	0x3e3e852c	0.18605489
69	0xbce510bd	-0.027962083
70	0x3f08f8e5	0.5350478
71	0xbd595817	-0.053062525
72	0x3d4d5e36	0.050138675
73	0xbebe2800	-0.37139893
74	0x3e418df4	0.18901807
75	0x3d257270	0.04039234
76	0xc12c31bf	-10.762145
77	0x3fd8e03d	1.6943432
78	0x3c95c7ad	0.01828369
79	0xbea24272	-0.3169132
80	0x3e3ad830	0.18246531
81	0xbe784de9	-0.2424847
82	0x3e48a268	0.19593203
83	0xbe474fa4	-0.19463974
84	0x3fe02e8c	1.7514205
85	0xbe1b7382	-0.15180781
86	0xbd8a5252	-0.067539826
87	0xbd4d4b51	-0.050120655
88	0xbf21d4ef	-0.63215536
89	0x3eb49a33	0.35273895
90	0x3f5916c7	0.8480038
91	0x3ff15df9	1.8856803
92	0xbe08d954	-0.13364154
93	0xbde9f0de	-0.11422895
94	0x3d980080	0.0742197
95	0xbeab2dff	-0.3343353
96	0xbd08430e	-0.033267073
97	0xbf04b2ae	-0.51835144
98	0xbcbddfb3	-0.023177957
99	0xbdd7047c	-0.10498902
100	0x4029666b	2.646876
101	0x4007affc	2.1201162
102	0xbc333c8a	-0.010939727
103	0xbbad3764	-0.005286144
104	0x3def4c58	0.11684483
105	0x3e1c2828	0.15249693
106	0xbdfd8d99	-0.12380523
107	0xbdb4df78	-0.08831686
108	0x3c029bee	0.007971747
109	0xbe1f3364	-0.15546948
110	0xbd0b4215	-0.033998568
111	0xbd5d9bf5	-0.05410381
112	0xbe00de4d	-0.12584801
113	0xbd89bf1b	-0.067259036
114	0x3d7d2a17	0.061807718
115	0xbd92cccd	-0.07167969
116	0xbd0a8ae3	-0.03382386
117	0x3e229ebb	0.15880863
118	0xbdad2010	-0.08453381
119	0xbe0de1dd	-0.13855691
120	0x3ccd9ed2	0.025100145
121	0x3d8c2bde	0.068443045
122	0xbc96fbad	-0.018430555
123	0xbea8c7bd	-0.32964888
124	0x3c73b7f1	0.014875398
125	0x3baa44dc	0.005196197
126	0xbba9cb94	-0.005181739
127	0xbc9eb2f1	-0.019372435
128	0x3dc2af2f	0.0950607
129	0xbce57b26	-0.028012823
130	0xbd86d3bd	-0.065833546
131	0x3e7e31fb	0.24823754
132	0xbd0c497b	-0.034249764
133	0xbe44f462	-0.1923385
134	0x3cdb774f	0.02679029
135	0x3d8dbd93	0.06920924
136	0x3d8f53fc	0.069984406
137	0x3eee785b	0.465762
138	0xbd9e1267	-0.07718354
139	0x3c83a1ce	0.016068365
140	0xbc3feedf	-0.011714666
141	0xbcd441f5	-0.025910357
142	0x3df7b1f9	0.120944925
143	0x3e3f07ec	0.18655366
144	0x3db976cf	0.09055864
145	0x3e11d7e1	0.14242508
146	0xbd90fda5	-0.07079629
147	0xbde12040	-0.10992479
148	0xbb8fb3b3	-0.0043854355
149	0xbdeb0969	-0.11476404
150	0xbdc1679c	-0.0944359
151	0xbfef430f	-1.869234
152	0x40270e80	2.61026
153	0x3e0154d6	0.12630019
154	0xbf1625ee	-0.58651626
155	0x3dc26328	0.09491569
156	0xbddda348	-0.10822159
157	0x3ed2fa5c	0.41206634
158	0xbf2a4475	-0.6651071
159	0xbdcc2baa	-0.09969266
160	0xc13bad6e	-11.729841
161	0xbd13a7e3	-0.03604878
162	0xbea8b2d6	-0.3294894
163	0xbeaa1733	-0.33220825
164	0xbeb5281a	-0.35382158
165	0xbe67b584	-0.22627836
166	0x3e8bb108	0.27283502
167	0x3bdfe288	0.0068324246
168	0xbe39dcb8	-0.18150604
169	0xbee514bd	-0.44742385
170	0xbed47caf	-0.41501376
171	0x3e0279f4	0.12741834
172	0xbe5b9652	-0.21444061
173	0x3f1c514f	0.6106157
174	0xbefa5fb1	-0.48901132
175	0x3dd6f95f	0.104967825
176	0xbf1eb549	-0.6199537
177	0xbe03d4d3	-0.12874155
178	0xbf488fb4	-0.78344274
179	0xbec89321	-0.3917475
180	0x3f766a40	0.96255875
181	0xbe8fb520	-0.28067875
182	0xbcbfbcf4	-0.02340553
183	0x3de91e8f	0.11382782
184	0xbe873f6c	-0.26415575
185	0xbe7911e5	-0.24323232
186	0x40942f84	4.6308002
187	0x3d93118c	0.07181081
188	0x3d1d1dc7	0.038358476
189	0xbeead832	-0.4586807
190	0xbeb855e6	-0.36003035
191	0xbe8c36bb	-0.27385506
192	0x3ed536cd	0.41643372
193	0xbe962e36	-0.2933213
194	0x3f2ab20a	0.66677916
195	0x3efa60ff	0.48902127
196	0x3f22f74a	0.63658583
197	0x3e6753dd	0.22590585
198	0x3c8ccb70	0.01718685
199	0x3f0649be	0.5245627
200	0x3f092815	0.53576785
201	0x3ea90ba5	0.33016697
202	0x409b1297	4.8460193
203	0x4097049e	4.7193136
204	0x3ccf5b5a	0.025312115
205	0xbd5c1f15	-0.05374058
206	0x3d28e350	0.041232407
207	0x3c017b34	0.007902909
208	0xbc24bd17	-0.010054848
209	0xbdc3320a	-0.095310286
210	0xbbbd98d3	-0.0057860403
211	0xbd1bbf57	-0.038024273
212	0x3d47fe39	0.04882643
213	0x3e3b11d2	0.18268517
214	0xbdd89cf2	-0.1057681
215	0xbe1136fc	-0.14181131
216	0xbda2ac7b	-0.07943054
217	0xbd382828	-0.04496017
218	0xbd04bf50	-0.032409012
219	0xbd20bf36	-0.039244853
220	0x3ca39199	0.019966887
221	0xbd6080fe	-0.054810517
222	0x3d87d008	0.06631476
223	0xbaadf6b6	-0.0013272378
224	0x3cb0ba89	0.021573322
225	0xbd3e431f	-0.04645073
226	0x3d3cec76	0.046123944
227	0x3d6e8ed7	0.05824169
228	0x3da04f9c	0.07827684
229	0xbd138da3	-0.036023747
230	0x3d699543	0.057027113
231	0xbcb5703f	-0.02214825
232	0x3d93431f	0.07190537
233	0x3d5a4427	0.05328765
234	0x3d25f202	0.040514
235	0xb72b12e0	-1.0196789e-05
236	0x3d204409	0.039127383
237	0x3e45db7d	0.1932201
238	0x3d6acb05	0.05732252
239	0x3c71ffe9	0.014770486
240	0x3eb0b99f	0.34516618
241	0x3ee9cbb6	0.45663232
242	0x3f0b80c3	0.5449335
243	0x3ee6ca3e	0.45076174
244	0x3eae2108	0.34009576
245	0xbd578e29	-0.05262581
246	0x3d0c0bc8	0.034190923
247	0x3d1ae571	0.03781647
248	0x3c466b3c	0.012110528
249	0x3bda4483	0.0066609993
250	0x3dacc273	0.08435526
251	0xbda35f20	-0.07977128
252	0x3d733bb3	0.059383105
253	0x3f79ed4d	0.9762772
254	0x3f183f53	0.59471625
255	0xbe6026a2	-0.21889737

policy.mlp_extractor.value_net.0.bias f4 [64]
0	0xc13128fa	-11.072504
1	0xc0a415b6	-5.1276503
2	0x408d34c5	4.4126916
3	0xc018bab3	-2.3863952
4	0xc00de7d2	-2.2172742
5	0xc08a9f7f	-4.3319697
6	0x40d06938	6.512844
7	0xbfb19784	-1.3874364
8	0x3f6e6597	0.93123764
9	0x403c6d9c	2.94419
10	0x40c8d79b	6.276319
11	0x411375a3	9.21622
12	0x40c8f817	6.2802844
13	0xc1092c35	-8.573293
14	0xc074d70a	-3.825625
15	0x40b6c71b	5.711805
16	0x3ffa90de	1.957546
17	0xc0b483eb	-5.6411033
18	0xc0ee46a9	-7.4461255
19	0xc0a3dd11	-5.1207356
20	0x410d633d	8.836728
21	0xc10e27a8	-8.884682
22	0x4166662c	14.399944
23	0x405b764b	3.429095
24	0xc0d5b479	-6.6782804
25	0x4185f3f3	16.744116
26	0xbfe8fe84	-1.8202672
27	0x403182c5	2.7736065
28	0xc0900918	-4.50111
29	0xc092b197	-4.5841784
30	0x402fb691	2.745518
31	0xc0dabc42	-6.8354807
32	0xc02c1958	-2.6890469
33	0xc0ed536e	-7.4164343
34	0x40e84293	7.2581267
35	0x4158028b	13.500621
36	0x408f7bb9	4.483853
37	0x405600b7	3.3437936
38	0x4148ee97	12.558249
39	0xc18431e8	-16.524368
40	0xc135de05	-11.366704
41	0xc1617bb9	-14.092706
42	0x3fa99034	1.3247132
43	0x40c70672	6.219537
44	0x402490cc	2.5713377
45	0xbf9a52d4	-1.2056527
46	0x41130dd5	9.190877
47	0x409b4db5	4.8532357
48	0xc0245f24	-2.568307
49	0xc104c9a6	-8.299231
50	0x4135482b	11.330119
51	0x40929cea	4.5816545
52	0xc1179d74	-9.475941
53	0xc104274d	-8.259595
54	0x410df41a	8.872095
55	0x4097f2ff	4.7484126
56	0xbf71b3d6	-0.9441503
57	0x416156c5	14.083684
58	0xc0fd35b4	-7.9128056
59	0xc0b042cc	-5.508154
60	0x413397d9	11.224572
61	0x40e8de57	7.277141
62	0xc0ed519a	-7.416211
63	0xbf43f46b	-0.7654483

policy.mlp_extractor.value_net.2.weight f4 [64, 64]
0	0x3f6823fc	0.9067991
1	0x3f41d10f	0.75709623
2	0x40923b8a	4.569768
3	0xbf607bf8	-0.8768916
4	0xbfe782db	-1.8086809
5	0xc034e02c	-2.8261824
6	0xbf90d7ec	-1.1315894
7	0xbe8353c6	-0.25649852
8	0x3fdf988e	1.7468431
9	0x3fee8eac	1.863729
10	0x3f39df2b	0.7260615
11	0x4083eb3f	4.1224666
12	0xc11f14e9	-9.942605
13	0x3f8d0771	1.1017896
14	0x3eefb1b6	0.4681527
15	0xbee169c3	-0.44026002
16	0x3e24dd8f	0.16100143
17	0x3e92c061	0.28662398
18	0xc01ee4f8	-2.4827251
19	0x3ede5a7e	0.43428415
20	0xbfbcae08	-1.474061
21	0xc004e875	-2.076688
22	0x3f3b8599	0.7325073
23	0xbec3fac0	-0.38277245
24	0x3ec62297	0.38698265
25	0x3eb7d836	0.35907143
26	0x3f12e5e3	0.5738203
27	0x3f9cc428	1.2247362
28	0x3f8bb516	1.0914638
29	0x3e5a05be	0.21291253
30	0x3f1f26b8	0.62168455
31	0x3e1d0cdb	0.15336935
32	0x3f9fea11	1.2493306
33	0x3c5e6e08	0.013576038
34	0xbf8f0eea	-1.1176426
35	0x402858eb	2.6304271
36	0x3fb4e415	1.4132105
37	0xbe2959d7	-0.16538177
38	0x3eeaceb5	0.4586083
39	0xbf10c521	-0.56550795
40	0xbf219318	-0.6311507
41	0x3f3f4580	0.74715424
42	0x3ebe0518	0.3711326
43	0xbead274a	-0.33819038
44	0xc0a61f84	-5.191347
45	0xbf9609a9	-1.1721698
46	0xbe0c831e	-0.13721892
47	0xbca28fd2	-0.01984397
48	0xc03f8965	-2.992761
49	0x3f70b953	0.9403278
50	0x3f1cb4b4	0.6121323
51	0x4057c3fd	3.3713372
52	0xc0d78d7f	-6.7360225
53	0xbe0844e4	-0.1330753
54	0x3f3a2f7a	0.72728693
55	0x3da2c12a	0.07946999
56	0xbd9cfdca	-0.07665594
57	0xbfec9ced	-1.848539
58	0xbfa8791f	-1.3161963
59	0x3e8354cf	0.2565064
60	0x4046e617	3.1077936
61	0xbe11a37b	-0.14222519
62	0x3f493b83	0.7860643
63	0x3eae861c	0.34086692
64	0xc0d234e9	-6.5689588
65	0x3d81176c	0.063032955
66	0x3fa534ec	1.2906775
67	0xbe8eca74	-0.27888834
68	0x3f83fdd2	1.0311835
69	0xbdeba310	-0.11505711
70	0x3fad1fdb	1.3525347
71	0xc0a12494	-5.035715
72	0xbf54bc21	-0.8309956
73	0x40058157	2.0860193
74	0x3fe155e4	1.7604337
75	0x3f9064f6	1.1280811
76	0x3f36332f	0.7117185
77	0x3e834c3b	0.25644097
78	0xc08ae8bd	-4.3409104
79	0x4039aa0d	2.901004
80	0x3f209ecd	0.6274231
81	0xc0afc971	-5.49334
82	0xbe80773f	-0.25090978
83	0x3e7797cc	0.24179
84	0xbf831747	-1.0241479
85	0xc00bbc97	-2.1833856
86	0xbf8a2d1c	-1.0795016
87	0x3ce68dc2	0.028143767
88	0xbdf510ad	-0.11966071
89	0x3f07852e	0.5293759
90	0x3ee66268	0.44996953
91	0x3fa0739e	1.2535284
92	0x3eea8794	0.45806563
93	0xbe7c877d	-0.2466106
94	0xbf282a40	-0.6568947
95	0x3f43ba71	0.7645636
96	0x3e7dec8c	0.24797267
97	0xbde9b503	-0.11411478
98	0x3f15d7e6	0.5853256
99	0x3d720a00	0.059091568
100	0xbd0591b8	-0.03260967
101	0xbd84337f	-0.064551346
102	0xbf4af32b	-0.79277295
103	0x3e4b98a6	0.1988245
104	0xbf24909f	-0.64283174
105	0xc102781b	-8.154323
106	0x3dba2ea8	0.0909093
107	0xbd73b685	-0.059500236
108	0x3f12634b	0.5718276
109	0xbe207c20	-0.1567235
110	0x3f5139ab	0.8172862
111	0x3e4c2788	0.19936955
112	0x3f4ad90d	0.79237443
113	0xbf000370	-0.50005245
114	0x3ff17a10	1.8865376
115	0x3f3bd577	0.73372597
116	0x4029e403	2.6545417
117	0xc0327d26	-2.7888885
118	0x3da34447	0.07972007
119	0x3e6b9138	0.23004615
120	0xbdfc7ddb	-0.123286925
121	0x3f1e81d1	0.61916834
122	0x3e906a7b	0.28206238
123	0x3dcf89ab	0.1013368
124	0xc018e633	-2.3890502
125	0x3f5c7bb9	0.86126286
126	0x3dcdc16f	0.1004666
127	0xbda36ad1	-0.07979358
128	0x3f33abeb	0.701842
129	0x3e7fb7ba	0.2497243
130	0x3fa664f2	1.2999556
131	0x3e9dbf2e	0.3080992
132	0xbd0fd10f	-0.035111483
133	0x3f2f677d	0.68517286
134	0xbce2a95d	-0.02766865
135	0xbd122466	-0.035679244
136	0xc004203c	-2.0644674
137	0x3e46c751	0.1941197
138	0xbfa4d94f	-1.2878817
139	0x3eaadb63	0.33370504
140	0xbcd4b870	-0.025966853
141	0xbddadcdb	-0.10686656
142	0x3f49a3fa	0.78765833
143	0xbfa299fd	-1.2703243
144	0xbeb50f46	-0.35363215
145	0xbe64912e	-0.22321007
146	0x3f24b510	0.6433878
147	0x3e4dbe28	0.2009207
148	0xbc91190a	-0.017712135
149	0xbf538431	-0.82623583
150	0x3f804791	1.002184
151	0xbd27c769	-0.040961657
152	0x3e8d83f5	0.27639738
153	0x3f2dcd95	0.6789182
154	0x3f6ddf90	0.92919254
155	0xbec866ff	-0.3914108
156	0xbfb043e0	-1.3770714
157	0x3e8e644f	0.27810904
158	0x3f779be0	0.9672222
159	0xbe12ffee	-0.14355442
160	0xbf6065f6	-0.8765558
161	0xbd9e3600	-0.077251434
162	0xbeb54058	-0.35400653
163	0x3d8b5e6f	0.06805121
164	0xbe048097	-0.12939678
165	0x3c5b0171	0.013367043
166	0x3f616b98	0.880548
167	0x3f855877	1.0417622
168	0xc0920679	-4.56329
169	0xc0e089d2	-7.016824
170	0xbd4f9192	-0.050675936
171	0xc026356b	-2.5970104
172	0x3e1a39fd	0.15061183
173	0xbd71cb5c	-0.05903183
174	0x3efabbbe	0.4897136
175	0x3dbd993f	0.09257745
176	0x3da84fa4	0.08218315
177	0x3fc39e03	1.5282596
178	0xbfa8b401	-1.3179933
179	0xbe990a82	-0.2989083
180	0x40edf6d6	7.4363813
181	0x40201ac7	2.5016344
182	0xbf7bb1bc	-0.98318076
183	0xbeb54ba5	-0.35409275
184	0xbe8bc361	-0.272975
185	0xbf843245	-1.0327841
186	0xbf30c58a	-0.6905142
187	0xbf8d86b1	-1.105673
188	0x3e650ab1	0.2236736
189	0xc0260e65	-2.5946286
190	0xbe07d9a2	-0.13266614
191	0xbdad0690	-0.08448517
192	0xc011b5e1	-2.276726
193	0x3faa3465	1.329724
194	0x40804f50	4.0096817
195	0xbece63e7	-0.40310594
196	0x403dce73	2.9657257
197	0xbe514cfc	-0.20439523
198	0x3f7282c9	0.9473081
199	0xbfca4010	-1.58008
200	0x3f36c32c	0.7139156
201	0xbee18c38	-0.4405229
202	0xbefa7bde	-0.48922628
203	0x40799000	3.899414
204	0xbf4e67c1	-0.80627066
205	0xc01c8ba8	-2.446024
206	0xc05fec1c	-3.498786
207	0x3ff0c8a1	1.8811227
208	0x3ec1c3dc	0.3784474
209	0xbfcd0144	-1.6016011
210	0x3f8f235d	1.1182667
211	0xbfce0a20	-1.609684
212	0xc029d836	-2.6538215
213	0xbf9c6a11	-1.2219869
214	0x410da3bc	8.852474
215	0xbef08b0c	-0.46981084
216	0xbf01efcb	-0.5075652
217	0xbfab8c83	-1.3402256
218	0x3cc5b2d6	0.024133127
219	0x3f30ced1	0.69065577
220	0xbeca70ca	-0.39539176
221	0x3e4ab896	0.19796976
222	0xbf3e461f	-0.74325746
223	0xbea91f47	-0.33031675
224	0xbfa89797	-1.3171262
225	0x3fda463b	1.7052683
226	0xbf7dd381	-0.99150854
227	0x3e0ab954	0.1354726
228	0x402424c5	2.5647442
229	0xc0445db4	-3.0682192
230	0xbf0e9ec0	-0.55710983
231	0xc02519b8	-2.5796947
232	0xc00bbb25	-2.1832974
233	0xc0425c78	-3.0368938
234	0x400c8803	2.1958015
235	0xbe0d0dc1	-0.13774778
236	0xbf53fb5f	-0.82805437
237	0x3dcbf405	0.099586524
238	0x3fb2cf22	1.3969462
239	0xbefffb07	-0.49996206
240	0x3f0494bc	0.5178945
241	0x3f911314	1.1333947
242	0x3e92db0b	0.28682742
243	0x4042cc59	3.0437224
244	0xbe6ed988	-0.23325169
245	0xbe662d9a	-0.22478333
246	0xbe854fa2	-0.26037318
247	0x40043795	2.0658925
248	0x40a105e4	5.031969
249	0x3f113ee3	0.5673658
250	0xc05f699b	-3.4908206
251	0x3e828bed	0.2549738
252	0xc10ab11d	-8.668241
253	0xbdc0a8e7	-0.094072156
254	0x400a1f20	2.1581497
255	0xbf9c9a04	-1.2234502

policy.mlp_extractor.value_net.2.bias f4 [64]
0	0x40b0129f	5.502273
1	0x3f8ad7ee	1.0847147
2	0x3fb42292	1.407305
3	0x40806cf8	4.013302
4	0x4039a06c	2.9004164
5	0x3fc30be3	1.5238003
6	0x40759041	3.8369296
7	0xc036f87f	-2.858917
8	0x40661680	3.5951233
9	0x40640ba8	3.5632114
10	0xc05c7fdd	-3.4453042
11	0xbfd4f498	-1.6637144
12	0x4029dc2f	2.654064
13	0x40704d91	3.7547343
14	0x4003824c	2.0548277
15	0x401d1e7b	2.4549854
16	0xbf82b57b	-1.0211633
17	0x3feb14c3	1.8365711
18	0x407ea3c5	3.9787457
19	0x406e4a21	3.7232745
20	0x3fe5b22b	1.7944998
21	0xc013988d	-2.306186
22	0xc02dee1a	-2.7176576
23	0xc043fb61	-3.062218
24	0x4085bfba	4.179654
25	0xbed265a1	-0.41093162
26	0xc06a0ffc	-3.6572256
27	0xc084eed1	-4.1541524
28	0xc0656fae	-3.5849414
29	0x4085b714	4.1785984
30	0x40377780	2.8666687
31	0x403b007e	2.921905
32	0x40c083d1	6.016091
33	0xc0ad3066	-5.412158
34	0x3f4b5ec7	0.79441494
35	0xc005fb0e	-2.0934482
36	0x4012d08b	2.2939785
37	0x4095a7a8	4.676716
38	0xbfce7f65	-1.6132628
39	0xc08fa761	-4.489182
40	0x408b1bad	4.3471284
41	0x408689dc	4.2043285
42	0xc0a29416	-5.080577
43	0x410c8ac7	8.783881
44	0xc04060f8	-3.0059185
45	0xbf901fa0	-1.1259651
46	0xc05edf73	-3.4823883
47	0xc059f11f	-3.4053419
48	0x40806306	4.012088
49	0x40474146	3.113359
50	0xc04ababe	-3.1676478
51	0x3f8fbcc1	1.1229478
52	0x408ef1d5	4.4670205
53	0xc07d796a	-3.9605355
54	0x3ffb9d80	1.965744
55	0x4097f1c1	4.748261
56	0xbfb4ec25	-1.4134566
57	0x40283284	2.6280832
58	0xc02375f0	-2.5540733
59	0xc09e037f	-4.937927
60	0x3fb5b273	1.4195083
61	0x3f54134e	0.82841957
62	0xc034e3b4	-2.826398
63	0x402c9bdc	2.697013

policy.action_net.weight f4 [14, 64]
0	0xbec30086	-0.38086337
1	0xbfab0f7e	-1.3364103
2	0xbf779827	-0.9671654
3	0xbeb38ee4	-0.35069954
4	0xbf8c81ef	-1.0977153
5	0x4064d303	3.5753791
6	0xc01d76d4	-2.4603777
7	0xbecde4bd	-0.40213576
8	0x3eaac1d6	0.3335101
9	0x3f9ec957	1.2405194
10	0x3de5ee55	0.11227099
11	0xba77fec4	-0.0009460265
12	0x3f42924c	0.7600448
13	0x3f3aa750	0.7291155
14	0xbf77bd83	-0.96773547
15	0xbf144bbb	-0.57928056
16	0x3ce775ab	0.02825435
17	0xbf974690	-1.1818409
18	0x3e0f5b88	0.1399976
19	0xc03be9bd	-2.9361413
20	0x3f69a8fa	0.9127346
21	0x3c7bb1f5	0.0153622525
22	0xbd3601b0	-0.044435203
23	0x3f2b29e5	0.668608
24	0x3e99d7d0	0.30047464
25	0xbd2d8cb7	-0.042370524
26	0xbf5e8fe1	-0.8693829
27	0x3f4cccb3	0.79999846
28	0x3ff9d935	1.9519411
29	0xbd377509	-0.044789348
30	0x3f8b0f5e	1.0864065
31	0xbf88a437	-1.0675114
32	0x3f0ca56a	0.549399
33	0x3f8d4f20	1.1039772
34	0xbf89ab3d	-1.0755383
35	0xbfc1371e	-1.5094945
36	0xbeddedd0	-0.433455
37	0x3f8d8cab	1.1058553
38	0xbfa61ce6	-1.2977569
39	0xbf6f27c2	-0.9342004
40	0xbc3258d7	-0.010885439
41	0x3ffd25a9	1.9777118
42	0xbc5ede19	-0.013602757
43	0xbf99d35a	-1.2017624
44	0x3f5759a0	0.8412113
45	0x3fa762cf	1.3077029
46	0xbf1c7658	-0.6111808
47	0x3f5f417d	0.872093
48	0x3f31cf9a	0.694574
49	0x3e67eaa5	0.22648104
50	0xbd2e41b4	-0.042543128
51	0xc0a2629a	-5.0745363
52	0xbf96b911	-1.1775228
53	0xbeaa5158	-0.33265185
54	0x3f0d02bd	0.55082303
55	0xbfd0afaa	-1.6303608
56	0xbeb75b99	-0.3581207
57	0x3fb6ef83	1.4291843
58	0x3ef8f435	0.48623815
59	0xbed1cf84	-0.40978634
60	0x3f4e4753	0.8057758
61	0x3ef373df	0.4754934
62	0x3d186966	0.03720989
63	0x3efafd3d	0.4902133
64	0xbf5fffad	-0.87499505
65	0xbf3e4dc1	-0.74337393
66	0x4065d4e8	3.5911198
67	0x405e3f9a	3.472632
68	0x3f80ce2b	1.0062917
69	0xbefca659	-0.49345663
70	0xbf029cf3	-0.51020736
71	0xbf20fc55	-0.6288503
72	0xbf38cb39	-0.72185093
73	0xbf9e5df3	-1.2372421
74	0xbfb4186b	-1.4069952
75	0x3ea26598	0.31718135
76	0xbf0962fb	-0.5366666
77	0x3f0b2797	0.54357284
78	0x3f6b8b2a	0.9200922
79	0x4009a26b	2.1505382
80	0x3f7aeabe	0.9801444
81	0x3f031823	0.51208705
82	0xbe51dbb5	-0.20493968
83	0xbf0e24b5	-0.5552476
84	0x3ef1b0f6	0.47205323
85	0x3e860a02	0.2617951
86	0x3f0e795c	0.5565393
87	0xbd8d6246	-0.0690351
88	0x3f101aee	0.5629109
89	0x3ed88eb7	0.42296383
90	0xbf0525cd	-0.52010804
91	0x3e186a58	0.14884317
92	0x3ef65942	0.48114973
93	0x40117100	2.272522
94	0xbe82aafd	-0.2552108
95	0x4027b342	2.620316
96	0xbfec377f	-1.8454436
97	0x3fcd53c3	1.6041187
98	0x3f2ef5b8	0.6834369
99	0x3fc482b4	1.5352387
100	0x3f25ea4f	0.6481065
101	0xbe4abef5	-0.19799407
102	0xbe48daec	-0.19614762
103	0xbf93324b	-1.1499723
104	0x40400116	3.0000663
105	0x3d7cf1bb	0.06175397
106	0xc0187d56	-2.38265
107	0x3f46085c	0.77356505
108	0xc00ff253	-2.2491653
109	0xc0065da3	-2.0994651
110	0x390fe36b	0.00013722263
111	0xbed8cc2c	-0.4234327
112	0x3f18a2ab	0.5962321
113	0x3e99823c	0.29982173
114	0xc026842b	-2.601817
115	0x405787e9	3.3676703
116	0x3fbbdced	1.4676796
117	0xbf3a0f1c	-0.72679305
118	0xc006ce9e	-2.106361
119	0x409742e2	4.7269144
120	0x404467f3	3.0688446
121	0xc03121aa	-2.7676797
122	0x3f193ec4	0.598614
123	0xbf63be63	-0.8896238
124	0x3dc1acb7	0.09456771
125	0xbe50b95b	-0.20383207
126	0x3f01feed	0.5077961
127	0x4018bf54	2.3866777
128	0x3f06d132	0.52662957
129	0xbd616ad1	-0.05503351
130	0xbf99d7a7	-1.2018937
131	0xbfece6aa	-1.8507893
132	0x3df55d59	0.11980695
133	0xbf9a9894	-1.2077813
134	0xbdc39b8b	-0.09551152
135	0x3ea7cc59	0.32773092
136	0x3f94deed	1.1630532
137	0xbfced733	-1.6159424
138	0x3f154051	0.58301264
139	0x3f0b2f93	0.5436947
140	0xbf60a3f6	-0.87750185
141	0xbf349e3c	-0.70553946
142	0xbf88fa9d	-1.0701481
143	0xbfb4144c	-1.4068694
144	0x3f99c4c5	1.2013174
145	0x3f0ae76c	0.5425937
146	0x3ed3d609	0.41374233
147	0x3eed0695	0.46294084
148	0xc006c729	-2.1059058
149	0x3fa04000	1.2519531
150	0xc003d671	-2.0599635
151	0xbfc9026b	-1.5703863
152	0xbf9fff03	-1.2499698
153	0xbe915846	-0.2838766
154	0xbed53c04	-0.4164735
155	0xbf522262	-0.82083714
156	0x3f0e1cc3	0.55512637
157	0xbfadd297	-1.3579892
158	0x3f4014cf	0.7503175
159	0x3f88ae61	1.0678216
160	0x3f136b99	0.57586056
161	0x3f69f611	0.9139109
162	0x400f8245	2.242326
163	0xbea023c7	-0.31277296
164	0x3fb775d4	1.4332833
165	0xbf3e40ef	-0.7431783
166	0x3f0f67fd	0.5601805
167	0x401da979	2.4634688
168	0xbf838e81	-1.0277864
169	0x3ea46ba4	0.32113373
170	0xbde55672	-0.11198129
171	0xbf9b6245	-1.2139364
172	0xbe9c337d	-0.30508032
173	0x3f99419c	1.1973147
174	0x3edd68d8	0.43244052
175	0xbf88307f	-1.06398
176	0xbfbadb38	-1.459815
177	0x3f8a7de8	1.0819674
178	0x40033e26	2.0506682
179	0x3f327ed6	0.69724786
180	0x3ea491cb	0.3214248
181	0xbe817569	-0.2528489
182	0xbf33fc28	-0.70306635
183	0xbfa3716e	-1.2768991
184	0xbf6ffedc	-0.9374826
185	0x3f709310	0.939744
186	0x3f26a701	0.6509858
187	0x3e852fcc	0.2601303
188	0xbd90df98	-0.07073897
189	0xbf8e8355	-1.1133829
190	0x3ea53f3f	0.32274815
191	0xc01b8f6d	-2.430629
192	0x3fb48897	1.4104184
193	0x3f1b226c	0.605994
194	0xbf1a5e20	-0.60299873
195	0xbf4b7311	-0.7947245
196	0x3e93514d	0.28772965
197	0xbf1895b9	-0.5960346
198	0x3fd9fb6d	1.7029854
199	0x3f3d4da4	0.73946595
200	0xbe916c03	-0.2840272
201	0x3f09df97	0.53856796
202	0xbeab9c8e	-0.3351788
203	0xbf13f6fb	-0.5779874
204	0xbdb15d20	-0.0866034
205	0xbd375c4d	-0.04476576
206	0x3fe9760d	1.8239151
207	0x3f20b426	0.62774885
208	0xbf80cbe4	-1.0062222
209	0x3ee9a128	0.45630765
210	0xbbef6b9f	-0.0073065306
211	0xbc23fbbb	-0.010008748
212	0xbf035ac8	-0.51310396
213	0xbfab936e	-1.3404367
214	0x3f1ac57d	0.60457593
215	0x3f913c55	1.1346537
216	0x3fd64035	1.6738344
217	0x40017222	2.022591
218	0xbf048619	-0.51767117
219	0xbf04b59d	-0.5183962
220	0xbfbe72fc	-1.487884
221	0xbf10b4f3	-0.56526107
222	0x3f2e417f	0.6806869
223	0xbf75915b	-0.9592492
224	0x3ed0621a	0.40699846
225	0xc018f217	-2.389776
226	0xc005b7ca	-2.0893426
227	0x3f9055d8	1.1276197
228	0x3f24ada5	0.6432746
229	0x3f5a679f	0.85314363
230	0x3f8715d2	1.0553534
231	0xbf3c7031	-0.7360869
232	0xbef7ffd8	-0.4843738
233	0xbefeb90e	-0.4975056
234	0x3fa49f37	1.2861089
235	0x3ff88574	1.9415727
236	0x3e17d045	0.14825542
237	0x3dd2c8e9	0.10292227
238	0x3f9fd399	1.248645
239	0xbe757c69	-0.2397324
240	0xbf571440	-0.84015274
241	0x3e0667e0	0.13125563
242	0x3f5b4be6	0.85662687
243	0x403bc28c	2.9337492
244	0xbf93e205	-1.1553351
245	0xbf03d905	-0.5150302
246	0x3fcdba8c	1.6072555
247	0xbf5ead8d	-0.8698357
248	0xbfa85ce6	-1.315335
249	0x3f5f354f	0.8719072
250	0xc027e13e	-2.6231227
251	0xbe8f5c85	-0.28000274
252	0xbfee3602	-1.8610232
253	0xbe5c0f3f	-0.21490191
254	0xc02a0315	-2.656438
255	0x3fd1bb49	1.638528

policy.action_net.bias f4 [14]
0	0x3e09d4df	0.1346011
1	0x3fae089b	1.3596376
2	0x3ccf08e1	0.025272788
3	0x3f4286a2	0.75986683
4	0xbf586fd1	-0.8454562
5	0x3cb9beb3	0.02267394
6	0xbf3b8c36	-0.7326082
7	0xbe42c0a1	-0.19018795
8	0x3f90676b	1.1281561
9	0x3e6ae7bb	0.2293996
10	0xbe98fe4f	-0.29881522
11	0xbd396114	-0.045258597
12	0x3e763eaf	0.2404735
13	0xbf0287d6	-0.5098852

policy.value_net.weight f4 [1, 64]
0	0xc19666b1	-18.800142
1	0x41c4e68f	24.612577
2	0xc163652a	-14.212198
3	0xc1904de1	-18.038027
4	0xc1a70443	-20.87708
5	0xc157c26f	-13.484969
6	0x41c2cded	24.35055
7	0xc1e188b6	-28.191753
8	0x41bae421	23.361391
9	0xc1ac3a9b	-21.528616
10	0x41b8387c	23.02758
11	0xc18364fc	-16.424309
12	0x4209686d	34.35198
13	0xc15538ce	-13.326368
14	0xc190d85c	-18.105644
15	0xc17a3e56	-15.640219
16	0x418d60c7	17.672255
17	0xc140e879	-12.056756
18	0xc1bbacc4	-23.459358
19	0x421e87c2	39.632576
20	0xc1417c11	-12.09279
21	0xc16d16bb	-14.818049
22	0x419b0315	19.376505
23	0x413e3999	11.889062
24	0xc1288565	-10.532567
25	0x418a9900	17.324707
26	0x414b5da6	12.710363
27	0x4233ec37	44.98068
28	0x411ab775	9.669789
29	0x41f372aa	30.430988
30	0xc179beab	-15.60905
31	0xc113fe76	-9.249624
32	0xc11f976d	-9.974469
33	0xc213f9fd	-36.99413
34	0x4129b018	10.605492
35	0x422c1ddc	43.02916
36	0xc052da36	-3.2945685
37	0xc11aaf92	-9.667864
38	0x41f5bc5b	30.71697
39	0xc1e78baa	-28.943195
40	0xc184cf31	-16.601168
41	0xc217cde0	-37.95105
42	0xc2121dd8	-36.529144
43	0xc2489336	-50.14376
44	0x414563b0	12.336838
45	0xc1fee340	-31.860962
46	0x415c35ff	13.763183
47	0xc1e5ab35	-28.708597
48	0xc199d258	-19.227707
49	0xc0611c0e	-3.5173373
50	0xc2250dc7	-41.263454
51	0x41c930aa	25.148762
52	0xc19e6a70	-19.801971
53	0x41bbb84b	23.464987
54	0xc1c925a9	-25.143389
55	0x421371d9	36.86118
56	0x415e419c	13.891018
57	0x41a349cf	20.41104
58	0xc1c72825	-24.894602
59	0x424a0b65	50.511127
60	0x41e69745	28.823862
61	0xc19d4b4f	-19.661772
62	0x4209708b	34.359905
63	0x41b1b4f8	22.213364
